…
[38;5;15m    [39m[38;5;186m"[39m[38;5;186mrel_pos_w[39m[38;5;186m"[39m[38;5;15m:[39m[38;5;15m [39m[38;5;15m{[39m[38;5;186m"[39m[38;5;186mweight_decay[39m[38;5;186m"[39m[38;5;15m:[39m[38;5;15m [39m[38;5;141m0.0[39m[38;5;15m}[39m[38;5;15m,[39m
[38;5;15m}[39m
[38;5;15moptimizer[39m[38;5;204m.[39m[38;5;15mlr[39m[38;5;15m [39m[38;5;204m=[39m[38;5;15m [39m[38;5;141m1.6e-4[39m

[08/02 22:35:45] detectron2 INFO: Full config saved to ./output/config.yaml
[08/02 22:35:45] d2.utils.env INFO: Using a generated random seed 48176891
[08/02 22:35:48] detectron2 INFO: Model:
GeneralizedRCNN(
  (backbone): FPN(
    (fpn_lateral2): Conv2d(96, 256, kernel_size=(1, 1), stride=(1, 1))
    (fpn_output2): Conv2d(256, 256, kernel_size=(3, 3), stride=(1, 1), padding=(1, 1))
    (fpn_lateral3): Conv2d(192, 256, kernel_size=(1, 1), stride=(1, 1))
    (fpn_output3): Conv2d(256, 256, kernel_size=(3, 3), stride=(1, 1), padding=(1, 1))
    (fpn_lateral4): Conv2d(384, 256, kernel_size=(1, 1), stride=(1, 1))
    (fpn_output4): Conv2d(256, 256, kernel_size=(3, 3), stride=(1, 1), padding=(1, 1))
    (fpn_lateral5): Conv2d(768, 256, kernel_size=(1, 1), stride=(1, 1))
    (fpn_output5): Conv2d(256, 256, kernel_size=(3, 3), stride=(1, 1), padding=(1, 1))
    (top_block): LastLevelMaxPool()
    (bottom_up): MViT(
      (patch_embed): PatchEmbed(
        (proj): Conv2d(3, 96, kernel_size=(7, 7), stride=(4, 4), padding=(3, 3))
      )
      (blocks): ModuleList(
        (0): MultiScaleBlock(
          (norm1): LayerNorm((96,), eps=1e-06, elementwise_affine=True)
          (attn): MultiScaleAttention(
            (qkv): Linear(in_features=96, out_features=288, bias=True)
            (proj): Linear(in_features=96, out_features=96, bias=True)
            (pool_q): Conv2d(96, 96, kernel_size=(3, 3), stride=(1, 1), padding=(1, 1), groups=96, bias=False)
            (norm_q): LayerNorm((96,), eps=1e-06, elementwise_affine=True)
            (pool_k): Conv2d(96, 96, kernel_size=(3, 3), stride=(4, 4), padding=(1, 1), groups=96, bias=False)
            (norm_k): LayerNorm((96,), eps=1e-06, elementwise_affine=True)
            (pool_v): Conv2d(96, 96, kernel_size=(3, 3), stride=(4, 4), padding=(1, 1), groups=96, bias=False)
            (norm_v): LayerNorm((96,), eps=1e-06, elementwise_affine=True)
          )
          (drop_path): Identity()
          (norm2): LayerNorm((96,), eps=1e-06, elementwise_affine=True)
          (mlp): Mlp(
            (fc1): Linear(in_features=96, out_features=384, bias=True)
            (act): GELU(approximate='none')
            (fc2): Linear(in_features=384, out_features=96, bias=True)
            (drop): Dropout(p=0.0, inplace=False)
          )
        )
        (1): MultiScaleBlock(
          (norm1): LayerNorm((96,), eps=1e-06, elementwise_affine=True)
          (attn): MultiScaleAttention(
            (qkv): Linear(in_features=96, out_features=576, bias=True)
            (proj): Linear(in_features=192, out_features=192, bias=True)
            (pool_q): Conv2d(96, 96, kernel_size=(3, 3), stride=(2, 2), padding=(1, 1), groups=96, bias=False)
            (norm_q): LayerNorm((96,), eps=1e-06, elementwise_affine=True)
            (pool_k): Conv2d(96, 96, kernel_size=(3, 3), stride=(2, 2), padding=(1, 1), groups=96, bias=False)
            (norm_k): LayerNorm((96,), eps=1e-06, elementwise_affine=True)
            (pool_v): Conv2d(96, 96, kernel_size=(3, 3), stride=(2, 2), padding=(1, 1), groups=96, bias=False)
            (norm_v): LayerNorm((96,), eps=1e-06, elementwise_affine=True)
          )
          (drop_path): DropPath()
          (norm2): LayerNorm((192,), eps=1e-06, elementwise_affine=True)
          (mlp): Mlp(
            (fc1): Linear(in_features=192, out_features=768, bias=True)
            (act): GELU(approximate='none')
            (fc2): Linear(in_features=768, out_features=192, bias=True)
            (drop): Dropout(p=0.0, inplace=False)
          )
          (proj): Linear(in_features=96, out_features=192, bias=True)
          (pool_skip): MaxPool2d(kernel_size=3, stride=2, padding=1, dilation=1, ceil_mode=False)
        )
        (2): MultiScaleBlock(
          (norm1): LayerNorm((192,), eps=1e-06, elementwise_affine=True)
          (attn): MultiScaleAttention(
            (qkv): Linear(in_features=192, out_features=576, bias=True)
            (proj): Linear(in_features=192, out_features=192, bias=True)
            (pool_q): Conv2d(96, 96, kernel_size=(3, 3), stride=(1, 1), padding=(1, 1), groups=96, bias=False)
            (norm_q): LayerNorm((96,), eps=1e-06, elementwise_affine=True)
            (pool_k): Conv2d(96, 96, kernel_size=(3, 3), stride=(4, 4), padding=(1, 1), groups=96, bias=False)
            (norm_k): LayerNorm((96,), eps=1e-06, elementwise_affine=True)
            (pool_v): Conv2d(96, 96, kernel_size=(3, 3), stride=(4, 4), padding=(1, 1), groups=96, bias=False)
            (norm_v): LayerNorm((96,), eps=1e-06, elementwise_affine=True)
          )
          (drop_path): DropPath()
          (norm2): LayerNorm((192,), eps=1e-06, elementwise_affine=True)
          (mlp): Mlp(
            (fc1): Linear(in_features=192, out_features=768, bias=True)
            (act): GELU(approximate='none')
            (fc2): Linear(in_features=768, out_features=192, bias=True)
            (drop): Dropout(p=0.0, inplace=False)
          )
        )
        (3): MultiScaleBlock(
          (norm1): LayerNorm((192,), eps=1e-06, elementwise_affine=True)
          (attn): MultiScaleAttention(
            (qkv): Linear(in_features=192, out_features=1152, bias=True)
            (proj): Linear(in_features=384, out_features=384, bias=True)
            (pool_q): Conv2d(96, 96, kernel_size=(3, 3), stride=(2, 2), padding=(1, 1), groups=96, bias=False)
            (norm_q): LayerNorm((96,), eps=1e-06, elementwise_affine=True)
            (pool_k): Conv2d(96, 96, kernel_size=(3, 3), stride=(1, 1), padding=(1, 1), groups=96, bias=False)
            (norm_k): LayerNorm((96,), eps=1e-06, elementwise_affine=True)
            (pool_v): Conv2d(96, 96, kernel_size=(3, 3), stride=(1, 1), padding=(1, 1), groups=96, bias=False)
            (norm_v): LayerNorm((96,), eps=1e-06, elementwise_affine=True)
          )
          (drop_path): DropPath()
          (norm2): LayerNorm((384,), eps=1e-06, elementwise_affine=True)
          (mlp): Mlp(
            (fc1): Linear(in_features=384, out_features=1536, bias=True)
            (act): GELU(approximate='none')
            (fc2): Linear(in_features=1536, out_features=384, bias=True)
            (drop): Dropout(p=0.0, inplace=False)
          )
          (proj): Linear(in_features=192, out_features=384, bias=True)
          (pool_skip): MaxPool2d(kernel_size=3, stride=2, padding=1, dilation=1, ceil_mode=False)
        )
        (4): MultiScaleBlock(
          (norm1): LayerNorm((384,), eps=1e-06, elementwise_affine=True)
          (attn): MultiScaleAttention(
            (qkv): Linear(in_features=384, out_features=1152, bias=True)
            (proj): Linear(in_features=384, out_features=384, bias=True)
            (pool_q): Conv2d(96, 96, kernel_size=(3, 3), stride=(1, 1), padding=(1, 1), groups=96, bias=False)
            (norm_q): LayerNorm((96,), eps=1e-06, elementwise_affine=True)
            (pool_k): Conv2d(96, 96, kernel_size=(3, 3), stride=(1, 1), padding=(1, 1), groups=96, bias=False)
            (norm_k): LayerNorm((96,), eps=1e-06, elementwise_affine=True)
            (pool_v): Conv2d(96, 96, kernel_size=(3, 3), stride=(1, 1), padding=(1, 1), groups=96, bias=False)
            (norm_v): LayerNorm((96,), eps=1e-06, elementwise_affine=True)
          )
          (drop_path): DropPath()
          (norm2): LayerNorm((384,), eps=1e-06, elementwise_affine=True)
          (mlp): Mlp(
            (fc1): Linear(in_features=384, out_features=1536, bias=True)
            (act): GELU(approximate='none')
            (fc2): Linear(in_features=1536, out_features=384, bias=True)
            (drop): Dropout(p=0.0, inplace=False)
          )
        )
        (5): MultiScaleBlock(
          (norm1): LayerNorm((384,), eps=1e-06, elementwise_affine=True)
          (attn): MultiScaleAttention(
            (qkv): Linear(in_features=384, out_features=1152, bias=True)
            (proj): Linear(in_features=384, out_features=384, bias=True)
            (pool_q): Conv2d(96, 96, kernel_size=(3, 3), stride=(1, 1), padding=(1, 1), groups=96, bias=False)
            (norm_q): LayerNorm((96,), eps=1e-06, elementwise_affine=True)
            (pool_k): Conv2d(96, 96, kernel_size=(3, 3), stride=(1, 1), padding=(1, 1), groups=96, bias=False)
            (norm_k): LayerNorm((96,), eps=1e-06, elementwise_affine=True)
            (pool_v): Conv2d(96, 96, kernel_size=(3, 3), stride=(1, 1), padding=(1, 1), groups=96, bias=False)
            (norm_v): LayerNorm((96,), eps=1e-06, elementwise_affine=True)
          )
          (drop_path): DropPath()
          (norm2): LayerNorm((384,), eps=1e-06, elementwise_affine=True)
          (mlp): Mlp(
            (fc1): Linear(in_features=384, out_features=1536, bias=True)
            (act): GELU(approximate='none')
            (fc2): Linear(in_features=1536, out_features=384, bias=True)
            (drop): Dropout(p=0.0, inplace=False)
          )
        )
        (6): MultiScaleBlock(
          (norm1): LayerNorm((384,), eps=1e-06, elementwise_affine=True)
          (attn): MultiScaleAttention(
            (qkv): Linear(in_features=384, out_features=1152, bias=True)
            (proj): Linear(in_features=384, out_features=384, bias=True)
            (pool_q): Conv2d(96, 96, kernel_size=(3, 3), stride=(1, 1), padding=(1, 1), groups=96, bias=False)
            (norm_q): LayerNorm((96,), eps=1e-06, elementwise_affine=True)
            (pool_k): Conv2d(96, 96, kernel_size=(3, 3), stride=(1, 1), padding=(1, 1), groups=96, bias=False)
            (norm_k): LayerNorm((96,), eps=1e-06, elementwise_affine=True)
            (pool_v): Conv2d(96, 96, kernel_size=(3, 3), stride=(1, 1), padding=(1, 1), groups=96, bias=False)
            (norm_v): LayerNorm((96,), eps=1e-06, elementwise_affine=True)
          )
          (drop_path): DropPath()
          (norm2): LayerNorm((384,), eps=1e-06, elementwise_affine=True)
          (mlp): Mlp(
            (fc1): Linear(in_features=384, out_features=1536, bias=True)
            (act): GELU(approximate='none')
            (fc2): Linear(in_features=1536, out_features=384, bias=True)
            (drop): Dropout(p=0.0, inplace=False)
          )
        )
        (7): MultiScaleBlock(
          (norm1): LayerNorm((384,), eps=1e-06, elementwise_affine=True)
          (attn): MultiScaleAttention(
            (qkv): Linear(in_features=384, out_features=1152, bias=True)
            (proj): Linear(in_features=384, out_features=384, bias=True)
            (pool_q): Conv2d(96, 96, kernel_size=(3, 3), stride=(1, 1), padding=(1, 1), groups=96, bias=False)
            (norm_q): LayerNorm((96,), eps=1e-06, elementwise_affine=True)
            (pool_k): Conv2d(96, 96, kernel_size=(3, 3), stride=(2, 2), padding=(1, 1), groups=96, bias=False)
            (norm_k): LayerNorm((96,), eps=1e-06, elementwise_affine=True)
            (pool_v): Conv2d(96, 96, kernel_size=(3, 3), stride=(2, 2), padding=(1, 1), groups=96, bias=False)
            (norm_v): LayerNorm((96,), eps=1e-06, elementwise_affine=True)
          )
          (drop_path): DropPath()
          (norm2): LayerNorm((384,), eps=1e-06, elementwise_affine=True)
          (mlp): Mlp(
            (fc1): Linear(in_features=384, out_features=1536, bias=True)
            (act): GELU(approximate='none')
            (fc2): Linear(in_features=1536, out_features=384, bias=True)
            (drop): Dropout(p=0.0, inplace=False)
          )
        )
        (8): MultiScaleBlock(
          (norm1): LayerNorm((384,), eps=1e-06, elementwise_affine=True)
          (attn): MultiScaleAttention(
            (qkv): Linear(in_features=384, out_features=2304, bias=True)
            (proj): Linear(in_features=768, out_features=768, bias=True)
            (pool_q): Conv2d(96, 96, kernel_size=(3, 3), stride=(2, 2), padding=(1, 1), groups=96, bias=False)
            (norm_q): LayerNorm((96,), eps=1e-06, elementwise_affine=True)
            (pool_k): Conv2d(96, 96, kernel_size=(3, 3), stride=(1, 1), padding=(1, 1), groups=96, bias=False)
            (norm_k): LayerNorm((96,), eps=1e-06, elementwise_affine=True)
            (pool_v): Conv2d(96, 96, kernel_size=(3, 3), stride=(1, 1), padding=(1, 1), groups=96, bias=False)
            (norm_v): LayerNorm((96,), eps=1e-06, elementwise_affine=True)
          )
          (drop_path): DropPath()
          (norm2): LayerNorm((768,), eps=1e-06, elementwise_affine=True)
          (mlp): Mlp(
            (fc1): Linear(in_features=768, out_features=3072, bias=True)
            (act): GELU(approximate='none')
            (fc2): Linear(in_features=3072, out_features=768, bias=True)
            (drop): Dropout(p=0.0, inplace=False)
          )
          (proj): Linear(in_features=384, out_features=768, bias=True)
          (pool_skip): MaxPool2d(kernel_size=3, stride=2, padding=1, dilation=1, ceil_mode=False)
        )
        (9): MultiScaleBlock(
          (norm1): LayerNorm((768,), eps=1e-06, elementwise_affine=True)
          (attn): MultiScaleAttention(
            (qkv): Linear(in_features=768, out_features=2304, bias=True)
            (proj): Linear(in_features=768, out_features=768, bias=True)
            (pool_q): Conv2d(96, 96, kernel_size=(3, 3), stride=(1, 1), padding=(1, 1), groups=96, bias=False)
            (norm_q): LayerNorm((96,), eps=1e-06, elementwise_affine=True)
            (pool_k): Conv2d(96, 96, kernel_size=(3, 3), stride=(1, 1), padding=(1, 1), groups=96, bias=False)
            (norm_k): LayerNorm((96,), eps=1e-06, elementwise_affine=True)
            (pool_v): Conv2d(96, 96, kernel_size=(3, 3), stride=(1, 1), padding=(1, 1), groups=96, bias=False)
            (norm_v): LayerNorm((96,), eps=1e-06, elementwise_affine=True)
          )
          (drop_path): DropPath()
          (norm2): LayerNorm((768,), eps=1e-06, elementwise_affine=True)
          (mlp): Mlp(
            (fc1): Linear(in_features=768, out_features=3072, bias=True)
            (act): GELU(approximate='none')
            (fc2): Linear(in_features=3072, out_features=768, bias=True)
            (drop): Dropout(p=0.0, inplace=False)
          )
        )
      )
      (scale2_norm): LayerNorm((96,), eps=1e-06, elementwise_affine=True)
      (scale3_norm): LayerNorm((192,), eps=1e-06, elementwise_affine=True)
      (scale4_norm): LayerNorm((384,), eps=1e-06, elementwise_affine=True)
      (scale5_norm): LayerNorm((768,), eps=1e-06, elementwise_affine=True)
    )
  )
  (proposal_generator): RPN(
    (rpn_head): StandardRPNHead(
      (conv): Conv2d(
        256, 256, kernel_size=(3, 3), stride=(1, 1), padding=(1, 1)
        (activation): ReLU()
      )
      (objectness_logits): Conv2d(256, 3, kernel_size=(1, 1), stride=(1, 1))
      (anchor_deltas): Conv2d(256, 12, kernel_size=(1, 1), stride=(1, 1))
    )
    (anchor_generator): DefaultAnchorGenerator(
      (cell_anchors): BufferList()
    )
  )
  (roi_heads): StandardROIHeads(
    (box_pooler): ROIPooler(
      (level_poolers): ModuleList(
        (0): ROIAlign(output_size=(7, 7), spatial_scale=0.25, sampling_ratio=0, aligned=True)
        (1): ROIAlign(output_size=(7, 7), spatial_scale=0.125, sampling_ratio=0, aligned=True)
        (2): ROIAlign(output_size=(7, 7), spatial_scale=0.0625, sampling_ratio=0, aligned=True)
        (3): ROIAlign(output_size=(7, 7), spatial_scale=0.03125, sampling_ratio=0, aligned=True)
      )
    )
    (box_head): FastRCNNConvFCHead(
      (flatten): Flatten(start_dim=1, end_dim=-1)
      (fc1): Linear(in_features=12544, out_features=1024, bias=True)
      (fc_relu1): ReLU()
      (fc2): Linear(in_features=1024, out_features=1024, bias=True)
      (fc_relu2): ReLU()
    )
    (box_predictor): FastRCNNOutputLayers(
      (cls_score): Linear(in_features=1024, out_features=81, bias=True)
      (bbox_pred): Linear(in_features=1024, out_features=320, bias=True)
    )
    (mask_pooler): ROIPooler(
      (level_poolers): ModuleList(
        (0): ROIAlign(output_size=(14, 14), spatial_scale=0.25, sampling_ratio=0, aligned=True)
        (1): ROIAlign(output_size=(14, 14), spatial_scale=0.125, sampling_ratio=0, aligned=True)
        (2): ROIAlign(output_size=(14, 14), spatial_scale=0.0625, sampling_ratio=0, aligned=True)
        (3): ROIAlign(output_size=(14, 14), spatial_scale=0.03125, sampling_ratio=0, aligned=True)
      )
    )
    (mask_head): MaskRCNNConvUpsampleHead(
      (mask_fcn1): Conv2d(
        256, 256, kernel_size=(3, 3), stride=(1, 1), padding=(1, 1)
        (activation): ReLU()
      )
      (mask_fcn2): Conv2d(
        256, 256, kernel_size=(3, 3), stride=(1, 1), padding=(1, 1)
        (activation): ReLU()
      )
      (mask_fcn3): Conv2d(
        256, 256, kernel_size=(3, 3), stride=(1, 1), padding=(1, 1)
        (activation): ReLU()
      )
      (mask_fcn4): Conv2d(
        256, 256, kernel_size=(3, 3), stride=(1, 1), padding=(1, 1)
        (activation): ReLU()
      )
      (deconv): ConvTranspose2d(256, 256, kernel_size=(2, 2), stride=(2, 2))
      (deconv_relu): ReLU()
      (predictor): Conv2d(256, 80, kernel_size=(1, 1), stride=(1, 1))
    )
  )
)
[08/02 22:35:54] d2.data.datasets.coco INFO: Loading /home/rahul/workspace/vision/beg24/building_extraction_generalization_2024/dataset/coco/train/train.json takes 1.18 seconds.
[08/02 22:35:54] d2.data.datasets.coco WARNING: 
Category ids in annotations are not in [1, #categories]! We'll apply a mapping for you.

[08/02 22:35:54] d2.data.datasets.coco INFO: Loaded 3784 images in COCO format from /home/rahul/workspace/vision/beg24/building_extraction_generalization_2024/dataset/coco/train/train.json
…
